…
ocks.10.mlp.D1', 'blocks.11.gamma_1', 'blocks.11.gamma_2', 'blocks.11.norm1.weight', 'blocks.11.norm1.bias', 'blocks.11.attn.relative_position_bias_table', 'blocks.11.attn.relative_position_index', 'blocks.11.attn.qkv.weight', 'blocks.11.attn.to_out.0.weight', 'blocks.11.norm2.weight', 'blocks.11.norm2.bias', 'blocks.11.mlp.D', 'blocks.11.mlp.D1', 'fpn1.0.weight', 'fpn1.0.bias', 'fpn1.1.weight', 'fpn1.1.bias', 'fpn1.1.running_mean', 'fpn1.1.running_var', 'fpn1.1.num_batches_tracked', 'fpn1.3.weight', 'fpn1.3.bias', 'fpn2.0.weight', 'fpn2.0.bias'])



MAE(
  (patch_embed): PatchEmbed(
    (proj): Conv2d(3, 768, kernel_size=(16, 16), stride=(16, 16))
  )
  (pos_drop): Dropout(p=0.0, inplace=False)
  (blocks): ModuleList(
    (0): Block(
      (norm1): LayerNorm((768,), eps=1e-06, elementwise_affine=True)
      (attn): Attention(
        (attend): Softmax(dim=-1)
        (dropout): Dropout(p=0.0, inplace=False)
        (qkv): Linear(in_features=768, out_features=768, bias=False)
        (to_out): Sequential(
          (0): Linear(in_features=768, out_features=768, bias=False)
        )
      )
      (drop_path): Identity()
      (norm2): LayerNorm((768,), eps=1e-06, elementwise_affine=True)
      (mlp): Mlp()
    )
    (1): Block(
      (norm1): LayerNorm((768,), eps=1e-06, elementwise_affine=True)
      (attn): Attention(
        (attend): Softmax(dim=-1)
        (dropout): Dropout(p=0.0, inplace=False)
        (qkv): Linear(in_features=768, out_features=768, bias=False)
        (to_out): Sequential(
          (0): Linear(in_features=768, out_features=768, bias=False)
        )
      )
      (drop_path): DropPath(p=0.00909090880304575)
      (norm2): LayerNorm((768,), eps=1e-06, elementwise_affine=True)
      (mlp): Mlp()
    )
    (2): Block(
      (norm1): LayerNorm((768,), eps=1e-06, elementwise_affine=True)
      (attn): Attention(
        (attend): Softmax(dim=-1)
        (dropout): Dropout(p=0.0, inplace=False)
        (qkv): Linear(in_features=768, out_features=768, bias=False)
        (to_out): Sequential(
          (0): Linear(in_features=768, out_features=768, bias=False)
        )
      )
      (drop_path): DropPath(p=0.0181818176060915)
      (norm2): LayerNorm((768,), eps=1e-06, elementwise_affine=True)
      (mlp): Mlp()
    )
    (3): Block(
      (norm1): LayerNorm((768,), eps=1e-06, elementwise_affine=True)
      (attn): Attention(
        (attend): Softmax(dim=-1)
        (dropout): Dropout(p=0.0, inplace=False)
        (qkv): Linear(in_features=768, out_features=768, bias=False)
        (to_out): Sequential(
          (0): Linear(in_features=768, out_features=768, bias=False)
        )
      )
      (drop_path): DropPath(p=0.027272727340459824)
      (norm2): LayerNorm((768,), eps=1e-06, elementwise_affine=True)
      (mlp): Mlp()
    )
    (4): Block(
      (norm1): LayerNorm((768,), eps=1e-06, elementwise_affine=True)
      (attn): Attention(
        (attend): Softmax(dim=-1)
        (dropout): Dropout(p=0.0, inplace=False)
        (qkv): Linear(in_features=768, out_features=768, bias=False)
        (to_out): Sequential(
          (0): Linear(in_features=768, out_features=768, bias=False)
        )
      )
      (drop_path): DropPath(p=0.036363635212183)
      (norm2): LayerNorm((768,), eps=1e-06, elementwise_affine=True)
      (mlp): Mlp()
    )
    (5): Block(
      (norm1): LayerNorm((768,), eps=1e-06, elementwise_affine=True)
      (attn): Attention(
        (attend): Softmax(dim=-1)
        (dropout): Dropout(p=0.0, inplace=False)
        (qkv): Linear(in_features=768, out_features=768, bias=False)
        (to_out): Sequential(
          (0): Linear(in_features=768, out_features=768, bias=False)
        )
      )
      (drop_path): DropPath(p=0.045454543083906174)
      (norm2): LayerNorm((768,), eps=1e-06, elementwise_affine=True)
      (mlp): Mlp()
    )
    (6): Block(
      (norm1): LayerNorm((768,), eps=1e-06, elementwise_affine=True)
      (attn): Attention(
        (attend): Softmax(dim=-1)
        (dropout): Dropout(p=0.0, inplace=False)
        (qkv): Linear(in_features=768, out_features=768, bias=False)
        (to_out): Sequential(
          (0): Linear(in_features=768, out_features=768, bias=False)
        )
      )
      (drop_path): DropPath(p=0.054545458406209946)
      (norm2): LayerNorm((768,), eps=1e-06, elementwise_affine=True)
      (mlp): Mlp()
    )
    (7): Block(
      (norm1): LayerNorm((768,), eps=1e-06, elementwise_affine=True)
      (attn): Attention(
        (attend): Softmax(dim=-1)
        (dropout): Dropout(p=0.0, inplace=False)
        (qkv): Linear(in_features=768, out_features=768, bias=False)
        (to_out): Sequential(
          (0): Linear(in_features=768, out_features=768, bias=False)
        )
      )
      (drop_path): DropPath(p=0.06363636255264282)
      (norm2): LayerNorm((768,), eps=1e-06, elementwise_affine=True)
      (mlp): Mlp()
    )
    (8): Block(
      (norm1): LayerNorm((768,), eps=1e-06, elementwise_affine=True)
      (attn): Attention(
        (attend): Softmax(dim=-1)
        (dropout): Dropout(p=0.0, inplace=False)
        (qkv): Linear(in_features=768, out_features=768, bias=False)
        (to_out): Sequential(
          (0): Linear(in_features=768, out_features=768, bias=False)
        )
      )
      (drop_path): DropPath(p=0.0727272778749466)
      (norm2): LayerNorm((768,), eps=1e-06, elementwise_affine=True)
      (mlp): Mlp()
    )
    (9): Block(
      (norm1): LayerNorm((768,), eps=1e-06, elementwise_affine=True)
      (attn): Attention(
        (attend): Softmax(dim=-1)
        (dropout): Dropout(p=0.0, inplace=False)
        (qkv): Linear(in_features=768, out_features=768, bias=False)
        (to_out): Sequential(
          (0): Linear(in_features=768, out_features=768, bias=False)
        )
      )
      (drop_path): DropPath(p=0.08181818574666977)
      (norm2): LayerNorm((768,), eps=1e-06, elementwise_affine=True)
      (mlp): Mlp()
    )
    (10): Block(
      (norm1): LayerNorm((768,), eps=1e-06, elementwise_affine=True)
      (attn): Attention(
        (attend): Softmax(dim=-1)
        (dropout): Dropout(p=0.0, inplace=False)
        (qkv): Linear(in_features=768, out_features=768, bias=False)
        (to_out): Sequential(
          (0): Linear(in_features=768, out_features=768, bias=False)
        )
      )
      (drop_path): DropPath(p=0.09090909361839294)
      (norm2): LayerNorm((768,), eps=1e-06, elementwise_affine=True)
      (mlp): Mlp()
    )
    (11): Block(
      (norm1): LayerNorm((768,), eps=1e-06, elementwise_affine=True)
      (attn): Attention(
        (attend): Softmax(dim=-1)
        (dropout): Dropout(p=0.0, inplace=False)
        (qkv): Linear(in_features=768, out_features=768, bias=False)
        (to_out): Sequential(
          (0): Linear(in_features=768, out_features=768, bias=False)
        )
      )
      (drop_path): DropPath(p=0.10000000149011612)
      (norm2): LayerNorm((768,), eps=1e-06, elementwise_affine=True)
      (mlp): Mlp()
    )
  )
  (fpn1): Sequential(
    (0): ConvTranspose2d(768, 768, kernel_size=(2, 2), stride=(2, 2))
    (1): SyncBatchNorm(768, eps=1e-05, momentum=0.1, affine=True, track_running_stats=True)
    (2): GELU()
    (3): ConvTranspose2d(768, 768, kernel_size=(2, 2), stride=(2, 2))
  )
  (fpn2): Sequential(
    (0): ConvTranspose2d(768, 768, kernel_size=(2, 2), stride=(2, 2))
  )
  (fpn3): Identity()
  (fpn4): MaxPool2d(kernel_size=2, stride=2, padding=0, dilation=1, ceil_mode=False)
)


#vanilla crate B/32

cls_token torch.Size([1, 1, 768])
pos_embed torch.Size([1, 257, 768])
patch_embed.proj.weight torch.Size([768, 3, 32, 32])
patch_embed.proj.bias torch.Size([768])
blocks.0.gamma_1 torch.Size([768])
blocks.0.gamma_2 torch.Size([768])
…
